…
plot_pred_points           : True
user                       : zheyu
hostname                   : storm
ts                         : 2024-09-12T11-41-02.161616


##################################
Net(
  (conv_first): TransformerConv(153, 64, heads=1)
  (conv_layers): ModuleList(
    (0): TransformerConv(64, 64, heads=1)
    (1): TransformerConv(64, 64, heads=1)
    (2): TransformerConv(64, 64, heads=1)
    (3): TransformerConv(64, 64, heads=1)
    (4): TransformerConv(64, 64, heads=1)
    (5): TransformerConv(64, 64, heads=1)
  )
  (jkn): JumpingKnowledge(max)
  (loss_function): MSELoss()
  (gate_nn_P): Sequential(
    (0): Linear(in_features=64, out_features=64, bias=True)
    (1): ReLU()
    (2): Linear(in_features=64, out_features=1, bias=True)
  )
  (glob_P): MyGlobalAttention(gate_nn=Sequential(
    (0): Linear(in_features=64, out_features=64, bias=True)
    (1): ReLU()
    (2): Linear(in_features=64, out_features=1, bias=True)
  ), nn=None)
  (gate_nn_pseudo_B): Sequential(
    (0): Linear(in_features=64, out_features=64, bias=True)
    (1): ReLU()
    (2): Linear(in_features=64, out_features=1, bias=True)
  )
  (glob_pseudo_B): MyGlobalAttention(gate_nn=Sequential(
    (0): Linear(in_features=64, out_features=64, bias=True)
    (1): ReLU()
    (2): Linear(in_features=64, out_features=1, bias=True)
  ), nn=None)
  (MLPs): MLP_multi_objective(
    (activation): ELU(alpha=1.0)
    (layers_common): ModuleList()
    (MLP_heads): ModuleDict(
      (perf): ModuleList(
        (0): Linear(in_features=128, out_features=32, bias=True)
        (1): Linear(in_features=32, out_features=16, bias=True)
        (2): Linear(in_features=16, out_features=8, bias=True)
        (3): Linear(in_features=8, out_features=1, bias=True)
      )
      (util-LUT): ModuleList(
        (0): Linear(in_features=128, out_features=32, bias=True)
        (1): Linear(in_features=32, out_features=16, bias=True)
        (2): Linear(in_features=16, out_features=8, bias=True)
        (3): Linear(in_features=8, out_features=1, bias=True)
      )
      (util-FF): ModuleList(
        (0): Linear(in_features=128, out_features=32, bias=True)
        (1): Linear(in_features=32, out_features=16, bias=True)
        (2): Linear(in_features=16, out_features=8, bias=True)
        (3): Linear(in_features=8, out_features=1, bias=True)
      )
      (util-DSP): ModuleList(
        (0): Linear(in_features=128, out_features=32, bias=True)
        (1): Linear(in_features=32, out_features=16, bias=True)
        (2): Linear(in_features=16, out_features=8, bias=True)
        (3): Linear(in_features=8, out_features=1, bias=True)
      )
      (util-BRAM): ModuleList(
        (0): Linear(in_features=128, out_features=32, bias=True)
        (1): Linear(in_features=32, out_features=16, bias=True)
        (2): Linear(in_features=16, out_features=8, bias=True)
        (3): Linear(in_features=8, out_features=1, bias=True)
      )
    )
  )
  (MLPs_per_pragma): ModuleDict(
    (tile): MLP(
      (activation): ELU(alpha=1.0)
      (layers): ModuleList(
        (0): Linear(in_features=65, out_features=32, bias=True)
        (1): Linear(in_features=32, out_features=64, bias=True)
      )
    )
    (pipeline): MLP(
      (activation): ELU(alpha=1.0)
      (layers): ModuleList(
        (0): Linear(in_features=65, out_features=32, bias=True)
        (1): Linear(in_features=32, out_features=64, bias=True)
      )
    )
    (parallel): MLP(
      (activation): ELU(alpha=1.0)
      (layers): ModuleList(
        (0): Linear(in_features=66, out_features=33, bias=True)
        (1): Linear(in_features=33, out_features=64, bias=True)
      )
    )
    (merge): MLP(
      (activation): ELU(alpha=1.0)
      (layers): ModuleList(
        (0): Linear(in_features=192, out_features=96, bias=True)
        (1): Linear(in_features=96, out_features=64, bias=True)
      )
    )
  )
)
